tf-lite-models/1.tflite (tflite, 204712 bytes, 9 tensors)

sequential_3/quant_conv2d_6/Relu;sequential_3/quant_conv2d_6/BiasAdd;sequential_3/quant_conv2d_6/Conv2D;sequential_3/quant_conv2d_6/BiasAdd/ReadVariableOp/resource f4 [32, 3, 3, 3]
000000 6a 82 24 b9 8d 58 5b b9 09 3b 12 3a 6e 73 41 ba
       -0.00015688842 -0.00020918455 0.0005578255 -0.0007379566
000010 09 3b 12 b8 9f 6a 1e 39 9f 6a 9e 38 9f 6a 1e 39
       -3.4864093e-05 0.00015107774 7.553887e-05 0.00015107774
000020 47 05 c6 39 ba b7 73 39 1b a6 ad 39 4f e7 7f b9
       0.00037769435 0.0002324273 0.0003312089 -0.00024404864
000030 09 3b 12 b8 58 17 09 ba 61 f9 c2 37 84 76 21 ba
       -3.4864093e-05 -0.0005229614 2.3242728e-05 -0.0006159323
000040 58 70 e1 b9 09 3b 92 39 ba b7 f3 b8 cc c9 36 39
       -0.00042999047 0.00027891275 -0.00011621365 0.00017432048
000050 66 91 07 3a b9 5e 1b ba 84 76 a1 39 3e 23 0c b9
       0.00051715074 -0.00059268955 0.00030796614 -0.00013364569
000060 23 88 e7 b9 cc c9 36 39 24 2f 0f 3a 57 dd d7 b9
       -0.00044161183 0.00017432048 0.00054620416 -0.00041172907
000070 02 d9 f2 39 db e9 89 b9 d1 ea 83 b9 d1 ea 83 b8
       0.0004631952 -0.00026304912 -0.0002516122 -6.290305e-05
000080 6e 61 3e ba dc dc da b9 e4 e8 8f b8 7d d9 ef b9
       -0.0007262443 -0.00041744753 -6.8621506e-05 -0.00045747674
000090 69 e8 12 ba 73 da 69 b9 7d d9 ef b9 15 e4 2d 39
       -0.000560409 -0.0002230199 -0.00045747674 0.00016583533
0000a0 ef e7 15 39 a7 68 11 ba 86 e5 24 ba db e9 09 3a
       0.0001429615 -0.00055469054 -0.0006290305 0.00052609824
0000b0 28 e2 39 39 db e9 09 39 57 dd d7 38 0b e5 a7 39
       0.00017727225 0.00013152456 0.00010293227 0.00032023372
0000c0 e4 e8 8f 38 d1 ea 03 3a 28 e2 39 39 c0 df c8 b9
       6.8621506e-05 0.0005032244 0.00017727225 -0.0003831368
0000d0 7c e6 1e 3a 7d d9 6f 38 1d 49 8e 39 d8 10 ba 39
       0.00060615665 5.7184592e-05 0.00027138824 0.00035489234
0000e0 76 e9 a6 39 a2 e6 5a 38 7f ca 70 38 b3 9a 80 39
       0.0003183593 5.2190044e-05 5.7409048e-05 0.00024529322
0000f0 a2 e6 5a b9 bd 7b ca b9 41 bf c7 39 e9 1e 2f b9
       -0.00020876018 -0.00038620635 0.00038098733 -0.00016700815
000100 90 7e 96 39 bd 7b 4a 39 9a 5f e0 b9 2f 57 83 b9
       0.00028704526 0.00019310317 -0.00042795838 -0.00025051224
000110 f3 ff f8 39 88 51 6b b9 c6 02 45 b8 41 12 20 ba
       0.00047492943 -0.00022441719 -4.6971043e-05 -0.00061062357
000120 7f ca 70 b8 41 bf c7 39 fc 86 f3 39 bc ce 22 ba
       -5.7409048e-05 0.00038098733 0.00046449143 -0.00062106154
000130 e0 97 b4 39 5b 54 b7 b9 aa c0 2d ba 76 e9 26 ba
       0.0003444543 -0.0003496733 -0.00066281355 -0.0006367186
000140 2f 57 03 b8 25 13 bf 38 c8 d5 b3 b6 c8 d5 b3 36
       -3.131403e-05 9.111156e-05 -5.359503e-06 5.359503e-06
000150 0a ed 94 39 ce 43 bc b9 6c 98 28 39 40 39 e9 39
       0.00028405368 -0.00035908673 0.0001607851 0.00044483878
000160 b3 1d 12 b9 5c 4e 8f 39 57 e0 86 b8 e4 fb dd b9
       -0.00013934709 0.00027333468 -6.4314045e-05 -0.00042340078
000170 b3 1d 12 b9 25 13 bf 39 1d 6e 32 ba 05 7f 8c 39
       -0.00013934709 0.00036444623 -0.0006806569 0.00026797518
000180 77 74 39 39 81 50 ca b8 9d 76 f4 b9 8c 2c db 39
       0.00017686361 -9.6471056e-05 -0.0004662768 0.00041804125
000190 ad af 89 39 1a 37 2e 39 de 8d d5 39 0a ed 94 b9
       0.00026261565 0.0001661446 0.00040732225 -0.00028405368
0001a0 c8 d5 b3 37 d9 1f cd 39 40 39 e9 b9 3a cb 60 b8
       2.1438012e-05 0.00039124375 -0.00044483878 -5.359503e-05
0001b0 63 be 37 39 b6 79 9b b9 9c 2a 41 39 a7 1e 99 39
       0.00017523165 -0.00029654586 0.00018421788 0.00029205272
0001c0 2c b9 d8 b8 99 c3 96 38 43 a1 08 ba 9f bd 02 3a
       -0.000103341736 7.18899e-05 -0.0005212018 0.0004987362
0001d0 7f 74 bc b9 9c 2a 41 39 d9 fd f4 38 01 a8 d1 b9
       -0.0003594495 0.00018421788 0.000116821095 -0.0003998876
0001e0 29 52 2e 39 8b 68 94 39 91 62 00 ba 60 57 0d 39
       0.0001662454 0.0002830665 -0.00048975 0.00013479358
0001f0 12 6a fe 39 9f bd 02 ba 7c 0d 12 ba 9c 2a 41 39
       0.00048525684 -0.0004987362 -0.00055714673 0.00018421788
000200 0d 9c 29 b9 bc 47 70 b9 a0 91 6b 39 fe 40 a7 39
       -0.0001617523 -0.00022914907 0.00022465596 0.00031901145
000210 12 96 15 ba 0d 9c 29 b8 0d 9c 29 b8 c9 d8 68 b9
       -0.0005706261 -4.0438073e-05 -4.0438073e-05 -0.00022206003
000220 47 f3 d3 b9 13 c2 7a b9 78 59 83 39 20 19 b6 b9
       -0.00040426312 -0.00023914156 0.00025052927 -0.00034732465
000230 57 15 39 ba 9e 33 a1 39 54 4a 8f 39 ba b1 22 ba
       -0.000706037 0.0003074677 0.00027330464 -0.0006206293
000240 57 15 39 39 41 5d 80 b9 8b 46 12 ba 7b 24 2d 3a
       0.00017650925 -0.00024483542 -0.000557997 0.0006604862
000250 54 4a 0f ba e6 51 09 39 13 c2 fa b8 39 cc 0d ba
       -0.0005466093 0.00013095848 -0.00011957078 -0.00054091547
000260 c6 0d bf b6 37 d1 6e 39 02 d0 0a ba 31 3b 9b b9
       -5.693847e-06 0.00022775387 -0.0005295278 -0.00029608005
000270 7b 24 2d 39 b2 20 30 ba 00 d5 eb b9 57 15 39 b9
       0.00016512156 -0.0006718739 -0.0004498139 -0.00017650925
000280 aa 8f 3d ba 0d 2c 27 38 5e 8c 36 b7 87 a9 47 b9
       -0.00072311854 3.985693e-05 -1.0880727e-05 -0.00019041273
000290 7e ec d5 39 0d 52 94 b9 d9 e3 e9 b9 fb d7 b0 39
       0.00040802726 -0.00028289892 -0.00044610983 0.00033730254
0002a0 3e 2c 17 ba 15 0f 86 b9 13 7b de b9 d9 e3 69 b9
       -0.00057667855 -0.0002556971 -0.00042434837 -0.00022305491
0002b0 15 0f 06 ba 75 2f e4 37 b2 5a 80 b9 d9 e3 69 b9
       -0.0005113942 2.7201817e-05 -0.00024481636 -0.00022305491
0002c0 5e 8c b6 37 d2 ba 1f b8 b9 4d 1e ba fb d7 30 b9
       2.1761454e-05 -3.8082544e-05 -0.0006038803 -0.00016865127
0002d0 45 1f 35 ba 87 a9 c7 b9 47 e9 88 39 0d 52 94 b8
       -0.00069092616 -0.00038082546 0.00026113747 -7.072473e-05
0002e0 ea 5d cd 38 b0 c6 58 39 01 01 7b 38 15 0f 86 39
       9.7926546e-05 0.00020673382 5.9844e-05 0.0002556971
0002f0 15 0f 86 39 df 3f 74 39 cb 04 12 ba 25 5d 8f b9
       0.0002556971 0.00023293447 -0.0005570172 -0.00027344484
000300 2c 8f 79 b9 d3 36 fc b9 dc 26 3f 39 44 a1 69 b9
       -0.00023799826 -0.00048106033 0.00018229656 -0.00022280688
000310 a6 e9 a9 b9 8a be 04 ba d3 95 28 ba 41 88 b4 39
       -0.00032408274 -0.0005063793 -0.0006431017 0.00034433792
000320 41 88 34 39 59 9a 24 b9 5d b3 d9 b9 df 3f f4 38
       0.00017216896 -0.00015697758 -0.000415231 0.000116467236
000330 0c 4b 1f ba 0c 4b 9f 38 8a be 04 b9 8e d7 b9 b9
       -0.00060765515 7.5956894e-05 -0.00012659482 -0.0003544655
000340 31 66 87 b9 a6 e9 29 39 b7 0b d7 b9 59 9a a4 39
       -0.00025825345 0.00016204137 -0.00041016724 0.00031395516
000350 4d 91 ac 39 a6 e9 a9 b6 be fb 19 39 b2 f2 21 3a
       0.00032914654 -5.0637927e-06 0.00014684998 0.0006177827
000360 d3 cd f8 b9 55 fb 21 3a 98 af a0 b9 07 76 a8 39
       -0.00047455597 0.0006179114 -0.00030648406 0.00032131394
000370 e4 02 b8 39 86 7a e1 b9 98 af a0 b9 75 3c 30 39
       0.00035097369 -0.0004300663 -0.00030648406 0.0001680719
000380 f5 40 69 b9 2f 56 cf b9 ba 22 11 3a 75 3c 30 b9
       -0.0002224481 -0.00039546328 0.00055364857 -0.0001680719
000390 75 3c b0 38 52 c9 bf 39 de 9e 73 39 8c de 25 39
       8.403595e-05 0.00036580354 0.00023233469 0.00015818531
0003a0 18 b4 d9 39 fb a4 ad b9 24 85 d4 39 8c de a5 b6
       0.00041523646 -0.0003312005 0.00040534989 -4.943291e-06
0003b0 cf 92 24 ba 41 8b 8e 39 46 f8 44 b9 5e 9a ba b9
       -0.00062779797 0.00027188103 -0.00018784506 -0.00035591697
0003c0 41 8b 8e 39 80 0d 2b b9 5e 9a 3a 38 a0 8d 15 b9
       0.00027188103 -0.0001631286 4.448962e-05 -0.00014262507
0003d0 79 bf fb b9 91 3d fe b9 41 95 0b 38 29 da d8 39
       -0.0004801711 -0.00048492526 3.3279186e-05 0.00041361272
0003e0 41 58 db 39 f1 72 b8 39 71 91 10 39 01 86 9f 38
       0.0004183669 0.00035180853 0.00013787091 7.606671e-05
0003f0 69 e9 c4 b9 91 3d fe b9 01 49 6f b9 e9 ca ec 39
       -0.00037557937 -0.00048492526 -0.00022820012 0.00045164608

sequential_3/quant_conv2d_6/BiasAdd;sequential_3/quant_conv2d_6/Conv2D;sequential_3/quant_conv2d_6/BiasAdd/ReadVariableOp/resource f4 [32]
000000 5f 74 1e bd a3 ab a1 3d 1c c8 98 3c 0d 35 07 bc
       -0.0386852 0.07894065 0.018650107 -0.008252394
000010 07 83 62 bd da cc 2b 3d ed 9b 32 bc 82 e4 86 bb
       -0.05530074 0.04194341 -0.010901433 -0.0041165957
000020 ca 02 88 bd b1 56 e4 3a 03 aa f2 bc 6d df c5 3c
       -0.06641157 0.0017420856 -0.029622084 0.02415439
000030 bc 87 63 bc 17 f4 87 bd 46 db 88 bd 38 4e a4 3c
       -0.013887342 -0.06638353 -0.06682448 0.020056829
000040 df 58 ee bc 1a 8c 87 bd 16 91 93 bd d2 5b 0d 3c
       -0.029095111 -0.06618519 -0.07205407 0.008627849
000050 74 96 d4 bd 4a 27 92 bd 7e c4 ac bc 12 3c f5 3c
       -0.10380259 -0.071364 -0.021089789 0.02993587
000060 c9 8d dc bd 0f 75 e7 3c 3a c6 14 bc 59 a1 7e bd
       -0.10769231 0.02825406 -0.009080464 -0.062165592
000070 07 05 a7 bd 23 f7 64 3b 7a 9d a9 bd 89 82 b4 bc
       -0.08155256 0.0034937344 -0.082819894 -0.0220349

sequential_3/quant_conv2d_7/Conv2D;sequential_3/quant_conv2d_7/LastValueQuant/FakeQuantWithMinMaxVarsPerChannel i1 [64, 3, 3, 32]
000000 c9 b7 2b 2f f9 f9 db f6 df fc 10 45 dd 4f e5 af
       -55 -73 43 47 -7 -7 -37 -10 -33 -4 16 69 -35 79 -27 -81
000010 41 cd b3 da b7 2d 03 c2 d3 f6 c5 3a 27 c2 2c b3
       65 -51 -77 -38 -73 45 3 -62 -45 -10 -59 58 39 -62 44 -77
000020 a8 cb c5 e8 e8 f4 cd a8 27 0c 38 36 ae e2 23 ee
       -88 -53 -59 -24 -24 -12 -51 -88 39 12 56 54 -82 -30 35 -18
000030 c9 d9 ba d1 1e c4 bc af fc 15 22 f2 f7 ca 0f df
       -55 -39 -70 -47 30 -60 -68 -81 -4 21 34 -14 -9 -54 15 -33
000040 13 e0 d1 e3 43 08 bd c3 2b ee f6 b2 de f4 e8 81
       19 -32 -47 -29 67 8 -67 -61 43 -18 -10 -78 -34 -12 -24 -127
000050 2a 3a f8 e3 af c8 d2 aa 1b b7 26 3e db bc f7 e1
       42 58 -8 -29 -81 -56 -46 -86 27 -73 38 62 -37 -68 -9 -31
000060 dd b8 f3 1b 16 e7 f4 eb e4 4e d5 d9 d8 cf 3d 92
       -35 -72 -13 27 22 -25 -12 -21 -28 78 -43 -39 -40 -49 61 -110
000070 c2 3c 16 22 f3 04 d8 32 1b 08 f6 4d 0a c9 ea c1
       -62 60 22 34 -13 4 -40 50 27 8 -10 77 10 -55 -22 -63
000080 ac a3 bf d6 14 28 e7 ba 0f 21 3e 1a 8b 3b 2f df
       -84 -93 -65 -42 20 40 -25 -70 15 33 62 26 -117 59 47 -33
000090 35 f7 b9 a6 05 ed 00 b4 e8 1e d0 f9 02 23 c0 c5
       53 -9 -71 -90 5 -19 0 -76 -24 30 -48 -7 2 35 -64 -59
0000a0 e2 9c cf 3c 40 27 d9 b1 0d 07 3b b5 1c c9 d3 b9
       -30 -100 -49 60 64 39 -39 -79 13 7 59 -75 28 -55 -45 -71
0000b0 09 52 11 0f ea 3f ea 1d 37 29 3e 46 f1 e6 18 a5
       9 82 17 15 -22 63 -22 29 55 41 62 70 -15 -26 24 -91
0000c0 d4 f9 f0 39 cb ff b7 cd 3b df f0 f8 ba 30 ff fe
       -44 -7 -16 57 -53 -1 -73 -51 59 -33 -16 -8 -70 48 -1 -2
0000d0 29 ef ba ca 11 e2 fc be ca 0a ba df 51 40 e8 fb
       41 -17 -70 -54 17 -30 -4 -66 -54 10 -70 -33 81 64 -24 -5
0000e0 f1 9d b1 fb dd f3 b4 d9 da e9 3c c8 0a 42 ed cc
       -15 -99 -79 -5 -35 -13 -76 -39 -38 -23 60 -56 10 66 -19 -52
0000f0 e3 29 1f 26 e9 32 29 a6 04 fa 06 d9 55 ff 3c 09
       -29 41 31 38 -23 50 41 -90 4 -6 6 -39 85 -1 60 9

sequential_3/quant_conv2d_8/Conv2D;sequential_3/quant_conv2d_8/LastValueQuant/FakeQuantWithMinMaxVarsPerChannel i1 [64, 3, 3, 64]
000000 dd 2e f9 38 0b 07 aa 2e c5 fb ee 34 2e e2 16 1e
       -35 46 -7 56 11 7 -86 46 -59 -5 -18 52 46 -30 22 30
000010 d1 fd ff 0c 17 31 c5 c4 0d dd b5 14 29 2a dc fa
       -47 -3 -1 12 23 49 -59 -60 13 -35 -75 20 41 42 -36 -6
000020 12 f9 ca e5 d6 dc 1e d3 e6 e7 d4 bb 13 e9 14 f0
       18 -7 -54 -27 -42 -36 30 -45 -26 -25 -44 -69 19 -23 20 -16
000030 c7 1c d9 d5 f4 2b 0a da ff d1 af cd f5 e3 04 0e
       -57 28 -39 -43 -12 43 10 -38 -1 -47 -81 -51 -11 -29 4 14
000040 24 2f d5 fd e3 e2 dc f8 f6 00 29 29 21 29 c8 07
       36 47 -43 -3 -29 -30 -36 -8 -10 0 41 41 33 41 -56 7
000050 d4 20 e6 d7 04 31 f1 0b 4d 19 11 06 19 e8 18 b9
       -44 32 -26 -41 4 49 -15 11 77 25 17 6 25 -24 24 -71
000060 08 db e3 11 ea f5 33 ff d8 df f1 cc 08 22 1a c0
       8 -37 -29 17 -22 -11 51 -1 -40 -33 -15 -52 8 34 26 -64
000070 12 ff 29 ec 0d d2 11 d0 d1 ec 18 1b ef 0d c5 0f
       18 -1 41 -20 13 -46 17 -48 -47 -20 24 27 -17 13 -59 15
000080 f6 2b d6 0d 22 d2 31 ce 26 f4 09 fe d8 fe 10 e7
       -10 43 -42 13 34 -46 49 -50 38 -12 9 -2 -40 -2 16 -25
000090 c6 d0 3b f6 70 07 16 e5 01 f8 14 32 d8 ed ce 14
       -58 -48 59 -10 112 7 22 -27 1 -8 20 50 -40 -19 -50 20
0000a0 f7 17 f3 e3 0d 14 06 fc ff e6 ce 1e 4c 02 0d ca
       -9 23 -13 -29 13 20 6 -4 -1 -26 -50 30 76 2 13 -54
0000b0 15 ff ff eb d6 d2 f6 90 f8 95 ec da 09 ee 09 e2
       21 -1 -1 -21 -42 -46 -10 -112 -8 -107 -20 -38 9 -18 9 -30
0000c0 0e de 03 ff 1d 20 bc 23 d2 05 ef 04 1c 2e 4b 0b
       14 -34 3 -1 29 32 -68 35 -46 5 -17 4 28 46 75 11
0000d0 ea b1 04 f4 04 19 d5 f2 1a 0d e3 17 fc 02 0c ee
       -22 -79 4 -12 4 25 -43 -14 26 13 -29 23 -4 2 12 -18
0000e0 1b f1 3a dc f2 f5 18 3e f2 c4 ed c7 f4 f1 ed db
       27 -15 58 -36 -14 -11 24 62 -14 -60 -19 -57 -12 -15 -19 -37
0000f0 f6 dd b5 d4 15 32 28 ae 0c f3 c7 31 dd 21 e4 1d
       -10 -35 -75 -44 21 50 40 -82 12 -13 -57 49 -35 33 -28 29

sequential_3/quant_conv2d_9/Conv2D;sequential_3/quant_conv2d_9/LastValueQuant/FakeQuantWithMinMaxVarsPerChannel i1 [64, 3, 3, 64]
000000 cf 15 03 06 0b e8 06 0f 0a 09 09 f8 2c 1f 04 d2
       -49 21 3 6 11 -24 6 15 10 9 9 -8 44 31 4 -46
000010 fa b6 1e 94 02 d4 05 d6 b1 01 fc 3d f5 ee e6 db
       -6 -74 30 -108 2 -44 5 -42 -79 1 -4 61 -11 -18 -26 -37
000020 e7 06 f1 e3 f7 4e 81 ea 3e f1 05 c4 9d d2 03 29
       -25 6 -15 -29 -9 78 -127 -22 62 -15 5 -60 -99 -46 3 41
000030 b3 aa e0 cb 24 df 28 d8 ef de ee 2d e6 16 20 02
       -77 -86 -32 -53 36 -33 40 -40 -17 -34 -18 45 -26 22 32 2
000040 d2 03 12 cb c8 10 1a fb dd 24 31 32 64 b9 ec d5
       -46 3 18 -53 -56 16 26 -5 -35 36 49 50 100 -71 -20 -43
000050 dc d1 dc b0 61 25 09 32 a4 f6 45 f6 fa 59 f6 d8
       -36 -47 -36 -80 97 37 9 50 -92 -10 69 -10 -6 89 -10 -40
000060 c4 06 e7 cf 07 2e 98 b6 1a 50 28 12 87 de ef 3c
       -60 6 -25 -49 7 46 -104 -74 26 80 40 18 -121 -34 -17 60
000070 a7 b2 c3 c4 14 07 d0 ef b5 fb d8 15 c1 2b 40 1c
       -89 -78 -61 -60 20 7 -48 -17 -75 -5 -40 21 -63 43 64 28
000080 d2 36 3a 12 dd ed 32 d5 de 0b fe 3a fa 1a 0b ce
       -46 54 58 18 -35 -19 50 -43 -34 11 -2 58 -6 26 11 -50
000090 fa 99 21 02 5e fa 16 fb f1 fc f2 0e f6 4c 0d f5
       -6 -103 33 2 94 -6 22 -5 -15 -4 -14 14 -10 76 13 -11
0000a0 ed 3b d3 ef 3b 51 de e7 ea 0b 0b 2d d4 21 3b fc
       -19 59 -45 -17 59 81 -34 -25 -22 11 11 45 -44 33 59 -4
0000b0 fa ca 2b d9 2a 12 fe ce 10 23 f3 3f c9 1a ed 14
       -6 -54 43 -39 42 18 -2 -50 16 35 -13 63 -55 26 -19 20
0000c0 c3 01 f5 e2 f8 d2 d4 04 e7 46 1d 30 1a ef 10 c9
       -61 1 -11 -30 -8 -46 -44 4 -25 70 29 48 26 -17 16 -55
0000d0 07 d1 e3 c7 18 08 c8 c2 c4 f1 fa 3d b9 4f f2 30
       7 -47 -29 -57 24 8 -56 -62 -60 -15 -6 61 -71 79 -14 48
0000e0 d2 e1 c4 db 33 16 23 a8 27 2f dd f5 c6 f0 f2 15
       -46 -31 -60 -37 51 22 35 -88 39 47 -35 -11 -58 -16 -14 21
0000f0 d7 e6 d3 10 fc f1 21 26 02 17 f8 3f cb 03 df f5
       -41 -26 -45 16 -4 -15 33 38 2 23 -8 63 -53 3 -33 -11

sequential_3/quant_conv2d_10/Conv2D;sequential_3/quant_conv2d_10/LastValueQuant/FakeQuantWithMinMaxVarsPerChannel i1 [64, 3, 3, 64]
000000 e7 e1 da 03 f2 fe 01 ec 0c ea d5 09 fc 04 f1 d3
       -25 -31 -38 3 -14 -2 1 -20 12 -22 -43 9 -4 4 -15 -45
000010 f9 10 02 03 02 0e 05 f4 f7 0a ff fc 13 e9 f9 f2
       -7 16 2 3 2 14 5 -12 -9 10 -1 -4 19 -23 -7 -14
000020 02 0c ed 3e e8 0f eb d6 fa f6 df e5 fe ee fb f6
       2 12 -19 62 -24 15 -21 -42 -6 -10 -33 -27 -2 -18 -5 -10
000030 1e f3 0d f0 d8 f3 f9 f2 fb 10 27 ec 0d ff 00 13
       30 -13 13 -16 -40 -13 -7 -14 -5 16 39 -20 13 -1 0 19
000040 fd 06 e2 ed 03 ea 18 fc fe f8 06 16 0f 0c 03 0b
       -3 6 -30 -19 3 -22 24 -4 -2 -8 6 22 15 12 3 11
000050 0b 06 f8 21 00 fa eb f7 10 08 06 13 fa f8 f7 09
       11 6 -8 33 0 -6 -21 -9 16 8 6 19 -6 -8 -9 9
000060 fa 0a 10 7f ec 20 f3 0c f5 02 1d 1c f7 ed 01 24
       -6 10 16 127 -20 32 -13 12 -11 2 29 28 -9 -19 1 36
000070 16 17 07 0b 04 0b 11 16 e6 0a 34 f0 0b 04 00 04
       22 23 7 11 4 11 17 22 -26 10 52 -16 11 4 0 4
000080 d8 fe ec 04 f3 03 0d 02 f7 0b ea 22 13 0b 00 dc
       -40 -2 -20 4 -13 3 13 2 -9 11 -22 34 19 11 0 -36
000090 17 f4 e9 12 f5 10 f2 f3 0c 12 09 eb 14 f9 ef e4
       23 -12 -23 18 -11 16 -14 -13 12 18 9 -21 20 -7 -17 -28
0000a0 02 fb 16 11 f0 f9 f7 f5 fb f4 ee fd f5 fc fc 0d
       2 -5 22 17 -16 -7 -9 -11 -5 -12 -18 -3 -11 -4 -4 13
0000b0 f1 0d fb 03 eb 03 1a 0d 07 0c 14 0e 08 00 06 06
       -15 13 -5 3 -21 3 26 13 7 12 20 14 8 0 6 6
0000c0 e8 05 f8 e7 c7 e4 07 fa fb 03 ea e9 01 02 ed da
       -24 5 -8 -25 -57 -28 7 -6 -5 3 -22 -23 1 2 -19 -38
0000d0 0a 08 ea fe f7 02 10 e8 06 06 10 03 f0 fb ef eb
       10 8 -22 -2 -9 2 16 -24 6 6 16 3 -16 -5 -17 -21
0000e0 01 fe db 0f ed 11 fe ef f9 d4 00 f3 02 0c c8 10
       1 -2 -37 15 -19 17 -2 -17 -7 -44 0 -13 2 12 -56 16
0000f0 f7 e6 f5 f8 d5 fd f8 f3 15 07 23 f5 f6 07 f3 f1
       -9 -26 -11 -8 -43 -3 -8 -13 21 7 35 -11 -10 7 -13 -15

sequential_3/quant_conv2d_11/Conv2D;sequential_3/quant_conv2d_11/LastValueQuant/FakeQuantWithMinMaxVarsPerChannel i1 [64, 3, 3, 64]
000000 e1 ea 0d fa 39 0f 0f 15 fb cd ae fd 15 d7 02 ea
       -31 -22 13 -6 57 15 15 21 -5 -51 -82 -3 21 -41 2 -22
000010 df 35 f5 e5 05 c8 43 00 2b 28 ff 07 ec 2d dd cf
       -33 53 -11 -27 5 -56 67 0 43 40 -1 7 -20 45 -35 -49
000020 ba 20 21 0a 0c 30 36 d2 d9 ff 0e 21 f6 e2 d3 cd
       -70 32 33 10 12 48 54 -46 -39 -1 14 33 -10 -30 -45 -51
000030 e6 be 81 ff 1e 0d 38 22 e5 e6 ca 18 d0 f5 d5 12
       -26 -66 -127 -1 30 13 56 34 -27 -26 -54 24 -48 -11 -43 18
000040 de 15 ff e0 74 f1 1d 1c 35 f5 bf 1e 37 a1 0b f8
       -34 21 -1 -32 116 -15 29 28 53 -11 -65 30 55 -95 11 -8
000050 e8 de f5 ff f6 e1 12 24 d4 25 f1 1c cc 34 06 ff
       -24 -34 -11 -1 -10 -31 18 36 -44 37 -15 28 -52 52 6 -1
000060 06 fa f1 1c e0 f5 1d 3c df 1a f6 f8 16 ef f9 41
       6 -6 -15 28 -32 -11 29 60 -33 26 -10 -8 22 -17 -7 65
000070 0e f9 c9 f1 e6 dc 09 e7 f1 02 f6 0f b7 f6 cf 15
       14 -7 -55 -15 -26 -36 9 -25 -15 2 -10 15 -73 -10 -49 21
000080 e7 33 0e 06 79 fd 05 1c 0c ca dd 24 0b e4 1c e2
       -25 51 14 6 121 -3 5 28 12 -54 -35 36 11 -28 28 -30
000090 ee 1d 20 00 e1 e8 03 f5 19 1c 1c fe 03 07 d5 fc
       -18 29 32 0 -31 -24 3 -11 25 28 28 -2 3 7 -43 -4
0000a0 2b 07 ef e8 de e8 03 fa 14 12 1c cf de aa f6 09
       43 7 -17 -24 -34 -24 3 -6 20 18 28 -49 -34 -86 -10 9
0000b0 04 d9 ec 18 cf 01 41 db d9 f4 d3 12 e5 1e 0e f6
       4 -39 -20 24 -49 1 65 -37 -39 -12 -45 18 -27 30 14 -10
0000c0 c6 cf 06 d8 cd 1b d6 d7 d0 3f ff ec d2 34 05 29
       -58 -49 6 -40 -51 27 -42 -41 -48 63 -1 -20 -46 52 5 41
0000d0 d4 e5 df 0b 0a cc 29 d7 b5 e7 15 f3 ed 03 0e 27
       -44 -27 -33 11 10 -52 41 -41 -75 -25 21 -13 -19 3 14 39
0000e0 dd d9 d6 01 ed d8 2a c0 e9 f3 df 05 f7 f8 c3 c9
       -35 -39 -42 1 -19 -40 42 -64 -23 -13 -33 5 -9 -8 -61 -55
0000f0 fc f4 06 fd f6 d0 e0 ea dc f0 02 d3 05 ba de 0c
       -4 -12 6 -3 -10 -48 -32 -22 -36 -16 2 -45 5 -70 -34 12

sequential_3/quant_dense_2/MatMul;sequential_3/quant_dense_2/LastValueQuant/FakeQuantWithMinMaxVars i1 [64, 256] scale=0.0031667377 zero_point=0
000000 1c 15 14 d6 eb 2f e5 f6 14 d3 dc e0 1c 16 db d2
       0.08866866 0.06650149 0.063334756 -0.13300298 -0.06650149 0.14883667 -0.08550192 -0.031667378 0.063334756 -0.1425032 -0.114002556 -0.10133561 0.08866866 0.06966823 -0.1171693 -0.14566994
000010 ed 10 e0 d5 e9 ff 2e e5 3e 06 e9 1b f2 31 e8 e8
       -0.060168017 0.050667804 -0.10133561 -0.13616972 -0.07283497 -0.0031667377 0.14566994 -0.08550192 0.19633774 0.019000426 -0.07283497 0.08550192 -0.04433433 0.15517014 -0.076001704 -0.076001704
000020 0f 2c c6 13 51 ee 28 2a de 2b 31 ed 2d f3 cc 28
       0.047501065 0.13933647 -0.18367079 0.060168017 0.25650576 -0.057001278 0.12666951 0.13300298 -0.107669085 0.13616972 0.15517014 -0.060168017 0.1425032 -0.04116759 -0.16467036 0.12666951
000030 fb e6 10 fd 00 1a 12 0b 02 22 e4 02 ee f3 2b f0
       -0.015833689 -0.08233518 0.050667804 -0.009500213 0.0 0.08233518 0.057001278 0.034834117 0.0063334755 0.107669085 -0.08866866 0.0063334755 -0.057001278 -0.04116759 0.13616972 -0.050667804
000040 ef 26 14 19 32 1a e7 25 06 0e f5 e6 28 e4 db 00
       -0.053834543 0.12033603 0.063334756 0.07916845 0.1583369 0.08233518 -0.07916845 0.1171693 0.019000426 0.04433433 -0.034834117 -0.08233518 0.12666951 -0.08866866 -0.1171693 0.0
000050 23 fe 21 bf 0f 08 35 0a 2c 2e f3 16 fb 19 01 33
       0.11083582 -0.0063334755 0.10450234 -0.20583795 0.047501065 0.025333902 0.1678371 0.031667378 0.13933647 0.14566994 -0.04116759 0.06966823 -0.015833689 0.07916845 0.0031667377 0.16150363
000060 d8 2c d3 f1 1a da d7 27 d9 ff f5 f5 14 d3 dc 04
       -0.12666951 0.13933647 -0.1425032 -0.047501065 0.08233518 -0.12033603 -0.12983625 0.12350277 -0.12350277 -0.0031667377 -0.034834117 -0.034834117 0.063334756 -0.1425032 -0.114002556 0.012666951
000070 24 0f dc 08 f6 24 2d 0f 1d 00 11 db e3 e3 13 eb
       0.114002556 0.047501065 -0.114002556 0.025333902 -0.031667378 0.114002556 0.1425032 0.047501065 0.091835395 0.0 0.053834543 -0.1171693 -0.091835395 -0.091835395 0.060168017 -0.06650149
000080 ea f6 16 23 1e 16 08 2a dd ef ff 13 0a f0 35 f5
       -0.06966823 -0.031667378 0.06966823 0.11083582 0.09500213 0.06966823 0.025333902 0.13300298 -0.11083582 -0.053834543 -0.0031667377 0.060168017 0.031667378 -0.050667804 0.1678371 -0.034834117
000090 e3 20 de eb 17 16 e8 14 ea e0 e1 e6 23 05 22 23
       -0.091835395 0.10133561 -0.107669085 -0.06650149 0.07283497 0.06966823 -0.076001704 0.063334756 -0.06966823 -0.10133561 -0.09816887 -0.08233518 0.11083582 0.015833689 0.107669085 0.11083582
0000a0 27 02 d4 01 20 d5 19 08 e2 19 10 1f 11 1d b6 17
       0.12350277 0.0063334755 -0.13933647 0.0031667377 0.10133561 -0.13616972 0.07916845 0.025333902 -0.09500213 0.07916845 0.050667804 0.09816887 0.053834543 0.091835395 -0.2343386 0.07283497
0000b0 25 ee 09 f8 0d ed d7 09 f9 48 e6 27 19 f7 f5 27
       0.1171693 -0.057001278 0.028500639 -0.025333902 0.04116759 -0.060168017 -0.12983625 0.028500639 -0.022167165 0.22800511 -0.08233518 0.12350277 0.07916845 -0.028500639 -0.034834117 0.12350277
0000c0 d6 f9 ec dc 11 e0 0e 1b 48 27 18 f6 e0 09 36 d7
       -0.13300298 -0.022167165 -0.063334756 -0.114002556 0.053834543 -0.10133561 0.04433433 0.08550192 0.22800511 0.12350277 0.076001704 -0.031667378 -0.10133561 0.028500639 0.17100383 -0.12983625
0000d0 16 22 2a bd 26 28 22 20 23 01 2b 2f 32 20 fd f0
       0.06966823 0.107669085 0.13300298 -0.21217144 0.12033603 0.12666951 0.107669085 0.10133561 0.11083582 0.0031667377 0.13616972 0.14883667 0.1583369 0.10133561 -0.009500213 -0.050667804
0000e0 dd ed f8 0e f1 13 e7 e7 fc 32 f3 e6 16 f8 28 24
       -0.11083582 -0.060168017 -0.025333902 0.04433433 -0.047501065 0.060168017 -0.07916845 -0.07916845 -0.012666951 0.1583369 -0.04116759 -0.08233518 0.06966823 -0.025333902 0.12666951 0.114002556
0000f0 13 08 f4 09 f7 e7 20 27 d8 11 1d d8 1d f2 24 22
       0.060168017 0.025333902 -0.038000852 0.028500639 -0.028500639 -0.07916845 0.10133561 0.12350277 -0.12666951 0.053834543 0.091835395 -0.12666951 0.091835395 -0.04433433 0.114002556 0.107669085

sequential_3/quant_dense_3/MatMul;sequential_3/quant_dense_3/LastValueQuant/FakeQuantWithMinMaxVars i1 [3, 64] scale=0.0033283387 zero_point=0
000000 28 2f b7 4e d4 b0 10 31 10 57 ea 23 ff 62 58 0c
       0.13313355 0.15643191 -0.24296872 0.2596104 -0.1464469 -0.2662671 0.05325342 0.1630886 0.05325342 0.28956547 -0.07322345 0.116491854 -0.0033283387 0.3261772 0.2928938 0.039940067
000010 aa 50 d2 d6 68 ab ba d9 28 b9 25 e6 f3 a1 3c 29
       -0.28623712 0.2662671 -0.15310358 -0.13979022 0.34614724 -0.2829088 -0.23298371 -0.1298052 0.13313355 -0.23631205 0.12314853 -0.08653681 -0.043268405 -0.31619218 0.19970033 0.13646188
000020 cd 48 ae a5 04 d8 3f c2 c4 42 de 1e 10 b6 fc c9
       -0.16974528 0.23964038 -0.27292377 -0.30287883 0.013313355 -0.13313355 0.20968534 -0.206357 -0.19970033 0.21967036 -0.113163516 0.09985016 0.05325342 -0.24629706 -0.013313355 -0.18305863
000030 ae 46 18 d7 bb d7 3c 3e e4 07 ca bf 24 d2 da a7
       -0.27292377 0.23298371 0.07988013 -0.13646188 -0.22965537 -0.13646188 0.19970033 0.206357 -0.09319349 0.023298372 -0.1797303 -0.21634202 0.11982019 -0.15310358 -0.12647687 -0.29622215
000040 40 c3 34 19 10 ff 9b 18 26 08 1d 29 49 25 c7 ef
       0.21301368 -0.20302866 0.17307362 0.08320847 0.05325342 -0.0033283387 -0.3361622 0.07988013 0.12647687 0.02662671 0.096521825 0.13646188 0.24296872 0.12314853 -0.18971531 -0.056581758
000050 13 bc 41 ae 26 fd 45 45 ff cf 12 4e f8 04 f1 31
       0.063238434 -0.22632703 0.21634202 -0.27292377 0.12647687 -0.009985017 0.22965537 0.22965537 -0.0033283387 -0.1630886 0.059910096 0.2596104 -0.02662671 0.013313355 -0.04992508 0.1630886
000060 46 51 a9 d0 38 2e fc 0c 0d 1c 37 4d bf e6 d8 4b
       0.23298371 0.26959544 -0.28956547 -0.15976027 0.18638697 0.15310358 -0.013313355 0.039940067 0.043268405 0.09319349 0.18305863 0.2562821 -0.21634202 -0.08653681 -0.13313355 0.2496254
000070 ed 36 c2 e5 ce d6 36 06 11 06 c4 03 b5 e4 2a 0c
       -0.063238434 0.1797303 -0.206357 -0.08986515 -0.16641694 -0.13979022 0.1797303 0.019970033 0.056581758 0.019970033 -0.19970033 0.009985017 -0.2496254 -0.09319349 0.13979022 0.039940067
000080 dd 4f ed 3a 29 4b 64 0c e2 ed fd ef ce e0 f8 41
       -0.116491854 0.26293877 -0.063238434 0.19304365 0.13646188 0.2496254 0.3328339 0.039940067 -0.09985016 -0.063238434 -0.009985017 -0.056581758 -0.16641694 -0.10650684 -0.02662671 0.21634202
000090 1d a4 09 47 20 2f c7 44 20 ef f4 f5 bb 31 4b 1f
       0.096521825 -0.30620715 0.029955048 0.23631205 0.10650684 0.15643191 -0.18971531 0.22632703 0.10650684 -0.056581758 -0.039940067 -0.036611725 -0.22965537 0.1630886 0.2496254 0.1031785
0000a0 bd f1 3f 0f 1d 06 f4 e1 33 3f 45 14 38 e6 b9 3a
       -0.2229987 -0.04992508 0.20968534 0.04992508 0.096521825 0.019970033 -0.039940067 -0.1031785 0.16974528 0.20968534 0.22965537 0.06656677 0.18638697 -0.08653681 -0.23631205 0.19304365
0000b0 28 a8 d1 44 de 36 0d 12 b0 e9 81 0e d6 00 55 c7
       0.13313355 -0.2928938 -0.15643191 0.22632703 -0.113163516 0.1797303 0.043268405 0.059910096 -0.2662671 -0.07655179 -0.422699 0.046596743 -0.13979022 0.0 0.2829088 -0.18971531
