tf-lite-models/2.tflite (tflite, 201728 bytes, 16 tensors)

sequential_2/conv2d/Relu;sequential_2/conv2d/BiasAdd;sequential_2/conv2d/Conv2D;conv2d/bias f4 [32, 3, 3, 3]
00000000: ef80 9839 3c22 c739 0b36 10ba 0233 7439
00000010: ed47 c2b7 5c3f 5e39 9e81 8539 dacc 1eba
00000020: faf3 eeb8 0d3a 5639 d250 05b8 64f2 8238
00000030: a5df 8fb8 6b76 a739 d372 083a 503e 6c39
00000040: c6ac ae39 4983 c739 274a 0e39 9042 f5b9
00000050: 7891 b539 c74b 4e39 a5ea 40ba 52ab 07ba
00000060: 87d9 f5b9 f330 35ba b771 eab8 04f5 dfb9
00000070: d3ff ea39 0b11 6839 e61e b2b5 0db5 3d39
00000080: 1442 f6b9 1a5d 53b9 e656 02ba 0169 c5b9
00000090: 843a 8ab8 66e4 27b9 fc4c 4537 70e9 6e38
000000a0: 4f6b 0d39 a76a a5b9 6f50 99b9 badd 86b7
000000b0: b577 a2b9 0ada 4ab9 2f11 8937 cd50 bab9
000000c0: 885b df39 6cc0 19ba 306e 3b39 88cf 09ba
000000d0: 06d3 5eb9 23a4 1bb9 5aa0 8939 b092 ae38
000000e0: fb77 a4b9 79f3 3c39 7e94 1cba d4b1 ae37
000000f0: de7c 64b9 a232 4cba dec8 9839 9a32 8d39
00000100: 66c4 1736 a09b b5b9 edf3 42b9 6e06 3a39
00000110: 8abf ebb8 996c 68b9 cafa 8b39 d9d3 02ba
00000120: c90f 8f39 cd30 60b7 a5d4 1239 f8d8 e239
00000130: 32a0 a038 2924 d939 0b57 ef39 f810 2e37
00000140: 461c dab8 14f2 a9b7 d4d6 b0b9 4e71 0c39
00000150: a1f1 4839 974b 3f39 dc01 80b9 3cfa c639
00000160: 8596 6739 90c4 f339 2585 e539 6530 3bb9
00000170: 24be e839 916c bd39 9eae b0b8 53cf bdb9
00000180: e2c2 4db9 f470 5439 77d9 b8b9 0b8f 7039
00000190: 385b 20ba 6b0d e7b9 0cc4 343a 0228 d7b9
000001a0: 2991 c1b9 6495 3a3a a199 d1b9 1741 64b9
000001b0: 698e 0938 6a2b 9bb7 0d03 1aba feae 9939
000001c0: adec 4a37 d8aa 4d37 b0f4 17ba a892 8437
000001d0: edde 0dba 88d4 93b9 de7f b437 2cda 8539
000001e0: 8b17 9239 12c8 4d39 94af 06ba b270 1eba
000001f0: 4de6 f8b9 ffe7 96b9 c2c8 7cb9 23e1 e6b9
00000200: 7557 c538 2683 76b9 af51 8cb9 3398 5ab6
00000210: e51a 9c38 9285 0039 2a95 0038 b655 b9b9
00000220: 0cf9 2339 cc80 d7b9 f7c6 c8b9 ab17 00ba
00000230: 5634 ea39 fa1d 22ba a9e7 07ba b5e5 01ba
00000240: 5c3b a339 8641 13ba dc25 8439 dbda cf39
00000250: ae3c 1eb9 2fbc 9a39 ed5b 6739 8a7d 9339
00000260: 1d2e 23b9 b983 c6b9 36f4 f6b9 52f4 62b9
00000270: 5c92 4db9 fb88 2d39 38fc 0238 876b 13ba
00000280: fe51 fab9 34a7 1cb9 f238 1eba 7c02 e2b9
00000290: cb03 be39 954d 9439 0a69 19ba 0fc0 09ba
000002a0: 261a a5b9 7cb7 d939 1db8 f2b9 e731 7a38
000002b0: 8e0a eab9 09dc 5fb7 5600 c7b9 8053 bcb9
000002c0: bcbb a638 1ec5 e1b9 be9f d8b9 d516 9cb9
000002d0: 6b9d 3fb9 5d68 11ba f318 c0b8 f66e 9438
000002e0: 7f3f 7539 09e7 4239 7a9e d239 3907 07ba
000002f0: 7f10 ecb7 d981 91b9 c660 9639 e05a 13ba
00000300: 5b30 01ba 4092 a8b9 23ce 54b9 fe57 8439
00000310: 4d27 1b3a 4c57 20ba 2a85 ccb9 84f4 b538
00000320: 4779 0b39 223a 0b39 b6f4 77b9 28dd 86b9
00000330: dfb6 02b9 972f fb39 8330 98b9 7e36 9fb8
00000340: 4440 d139 8b6d eeb9 16e1 db39 6411 2539
00000350: 215a 83b9 bea4 e3b9 7f2d 18b9 dd51 dd39
00000360: 7697 0fba 4359 9039 0bed dc39 ffea dc39
00000370: 9710 bbb8 fce0 ad39 2292 7539 9899 05ba
00000380: b150 38b8 5917 1739 e9ec c6b9 356d f139
00000390: d473 1cb9 bfe3 a6b9 1aa4 7039 06e0 08ba
000003a0: ee02 d238 4520 04ba 9a62 cfb8 5515 f138
000003b0: f705 b2b9 bae9 34b9 2a80 4c39 c88f cb39
000003c0: 93a9 2f39 b78e c7b9 4d92 063a c8b9 77b9
000003d0: 396e 7a39 d26e 4739 ac2e 5d38 28a6 9238
000003e0: 7b02 dab8 3638 8ab8 e39b b0b8 046b 52b9
000003f0: 3961 e839 21f7 15ba 0bf4 af39 d879 9338
0.00029087762 0.00037981744 -0.0005501217 0.00023288655 -2.3160095e-05 0.00021195173 0.0002546431 -0.0006057747
-0.000113941685 0.00020430256 -3.178494e-05 6.244032e-05 -6.8604284e-05 0.0003194095 0.00052050984 0.00022529927
0.00033316592 0.00038054053 0.00013569799 -0.00046779634 0.00034631393 0.0001967392 -0.00073591835 -0.000517537
-0.00046892112 -0.0006911896 -0.000111791705 -0.00042716425 0.00044822562 0.00022131593 -1.3271026e-06 0.00018091891
-0.00046970008 -0.00020157211 -0.00049720553 -0.00037653002 -6.591252e-05 -0.00016011446 1.1760039e-05 5.6961027e-05
0.00013486783 -0.00031550715 -0.00029242362 -1.6077294e-05 -0.00030988237 -0.00019345447 1.6339674e-05 -0.00035536886
0.0004260207 -0.000586516 0.00017874758 -0.000525706 -0.00021250182 -0.00014843098 0.00026250147 8.324289e-05
-0.0003136991 0.00018019778 -0.0005973055 2.0825224e-05 -0.00021790291 -0.00077895273 0.00029141357 0.00026931317
2.2615072e-06 -0.0003463896 -0.00018592151 0.00017740738 -0.0001124135 -0.000221657 0.00026698998 -0.0004990674
0.00027286846 -1.3362803e-05 0.00014002861 0.00043267733 7.659233e-05 0.00041416407 0.00045650484 1.0375159e-05
-0.000104003164 -2.0259096e-05 -0.00033729395 0.0001339365 0.000191635 0.00018243339 -0.00024415448 0.00037951942
0.0002208595 0.00046495022 0.00043777484 -0.00017851738 0.00044392154 0.00036129777 -8.424859e-05 -0.00036203358
-0.00019622923 0.00020259974 -0.0003525724 0.00022941471 -0.0006117108 -0.0004406975 0.00068956683 -0.00041037804
-0.0003691998 0.0007117598 -0.0003997805 -0.00021768022 3.2795975e-05 -1.8497656e-05 -0.00058750884 0.00029312813
1.2095244e-05 1.225873e-05 -0.0005796654 1.5803918e-05 -0.00054119417 -0.00028196373 2.1517215e-05 0.00025530288
0.0002786483 0.00019624855 -0.00051378575 -0.00060440146 -0.00047473834 -0.0002878308 -0.00024107381 -0.00044036758
9.409982e-05 -0.00023509245 -0.0002676374 -3.2573123e-06 7.443669e-05 0.0001225679 3.0656498e-05 -0.0003534981
0.00015637669 -0.00041103957 -0.00038295213 -0.00048863393 0.0004467095 -0.00061842764 -0.00051843614 -0.00049551885
0.0003113401 -0.0005617369 0.0002520521 0.00039645177 -0.00015090659 0.00029513377 0.00022064122 0.0002813156
-0.0001556207 -0.00037863644 -0.00047102728 -0.00021644056 -0.00019604847 0.00016549595 3.1229312e-05 -0.0005623628
-0.00047744805 -0.00014939607 -0.0006035707 -0.0004310793 0.0003624245 0.00028286563 -0.0005852139 -0.0005254754
-0.00031490735 0.00041526172 -0.00046295012 5.965112e-05 -0.00044639822 -1.3343067e-05 -0.00037956488 -0.00035920367
7.950465e-05 -0.00043062208 -0.00041317748 -0.0002977165 -0.00018273822 -0.00055468624 -9.1599206e-05 7.077858e-05
0.00023388675 0.00018587349 0.00040172396 -0.00051509176 -2.8141074e-05 -0.000277533 0.0002868233 -0.00056211464
-0.0004928165 -0.00032152422 -0.00020294687 0.0002524256 0.0005918637 -0.0006116524 -0.00039009127 8.676297e-05
0.00013301252 0.00013277729 -0.00023646918 -0.00025723246 -0.00012465891 0.00047909908 -0.00029027843 -7.591861e-05
0.00039911468 -0.00045476513 0.00041938637 0.00015742105 -0.00025053418 -0.00043419556 -0.00014512798 0.00042213398
-0.00054775865 0.00027532325 0.0004213828 0.00042136756 -8.919945e-05 0.00033164758 0.0002341946 -0.00050964346
-4.394417e-05 0.0001440918 -0.00037942015 0.00046048468 -0.00014920469 -0.0003183167 0.00022949316 -0.00052213704
0.00010014126 -0.0005040209 -9.888895e-05 0.00011495749 -0.0003395525 -0.00017253208 0.00019502701 0.00038826303
0.00016752472 -0.0003806257 0.0005133495 -0.00023624965 0.00023882919 0.00019019403 5.2733973e-05 6.9927715e-05
-0.00010395512 -6.590823e-05 -8.42137e-05 -0.00020067027 0.00044322925 -0.0005720724 0.00033560427 7.0322014e-05

sequential_2/conv2d_5/BiasAdd;sequential_2/conv2d_1/Conv2D;sequential_2/conv2d_5/Conv2D;conv2d_5/bias f4 [64]
00000000: b936 7ebc 10df 1abd 18d2 803d 913d 013d
00000010: 029e 7dbc f199 1d3d d51d bd3d 46aa 7fbd
00000020: 03f8 8ebb 988d 9a3d c773 983c d472 ad3c
00000030: 618c cf3c 2cbe 7d3d 5042 52bd fd55 1abd
00000040: feaa a9bc 4e11 ebbc f12b 373d 06e5 32bd
00000050: eb25 693c dac6 a6bc a5b6 70bd 8418 8cbc
00000060: 0156 d8bc 690c 1ebd 9e23 03bd 3975 c8bb
00000070: 9ed0 4fbc b4d8 d8bc 10fe fcbb 3d52 813c
00000080: b9ab fcbc bbcd 633d 07fa dcbc 611a 28bc
00000090: 9a5a 2ebd 466b 483d afc2 60bc 7eb3 d43b
000000a0: f35b 313d 997c e13a cbfe 92bd 348c 0d3d
000000b0: 01cc 8abb 6c48 923a 7f37 8fbc d7f1 17bd
000000c0: d6b6 2f3d 3617 e8bc 1bce 5abc bf12 8c3c
000000d0: ceb4 2cbd 9e1f 71bb 862f 613d 7203 84bc
000000e0: 84ae 3e3d 9037 41bd 23cf d4bc 2d11 083c
000000f0: 061f d53d f826 ddb9 33ac 2e3d 395c 07bd
-0.015515977 -0.037810385 0.06290072 0.031552855 -0.0154795665 0.038476888 0.09234206 -0.062418245
-0.0043630614 0.07546538 0.018609894 0.021172918 0.025335493 0.06194894 -0.05133277 -0.03767966
-0.020711418 -0.028694775 0.04471964 -0.043675445 0.014230232 -0.020358492 -0.058767933 -0.017101534
-0.026408197 -0.038586054 -0.03201639 -0.0061174897 -0.012684016 -0.02647052 -0.0077207163 0.015786285
-0.030843602 0.05561612 -0.026974691 -0.0102601955 -0.042566873 0.04893043 -0.013718291 0.0064911237
0.04330058 0.0017203271 -0.07177504 0.034557536 -0.004235745 0.0011160499 -0.017482517 -0.03709587
0.042898975 -0.02833138 -0.013354803 0.017098783 -0.042164616 -0.0036792527 0.054976963 -0.016114924
0.04655315 -0.04717213 -0.025977677 0.008304876 0.10406308 -0.0004218144 0.04264469 -0.033046935

sequential_2/conv2d_4/BiasAdd;sequential_2/conv2d_1/Conv2D;sequential_2/conv2d_4/Conv2D;conv2d_4/bias f4 [64]
00000000: b086 6dbd b5d4 9a3d e5b9 bf3b 7151 8fbc
00000010: 8023 89bd df0c cfbc b792 47bd 40c1 5ebc
00000020: af47 123d 9d9b d1bc 1c5b c43d 3fab 393c
00000030: a8e2 7f3c 1714 de3d b359 88bc 6267 1cbd
00000040: 08d4 0f3c ecb2 853d c820 993c e014 27bd
00000050: 3174 41bd fdda 87bb 3847 c9bc 055d 343a
00000060: bb05 753d 71e8 59bd 9311 7dbc 5ee6 bc3b
00000070: 3a52 76bd 7417 c7bc 7e0f a23c 13a1 40bb
00000080: 545b de3d c21f 9dbd c009 20bd 9406 c8bc
00000090: bb39 87bd afd8 bfbc 74c6 10bc f429 40bd
000000a0: c9c9 88bd 2426 61bd 0d9e 58bc 43b9 0dbd
000000b0: 774b 1abd acfd 5c3c fbe2 9abc 5150 55bd
000000c0: b702 00bd 74ec 35bd 263f 42bd 5e3a b13a
000000d0: 4b86 09bc 870e b13b 92c5 c33a 7549 65bd
000000e0: e3ec 52bd 70a9 0d3b 2c49 80bc 1b85 0bbc
000000f0: d9ab 10bd b811 e0bc 2874 e13b 5c64 053b
-0.057989776 0.07560102 0.005851018 -0.017494889 -0.06696224 -0.025274692 -0.048723903 -0.013595879
0.035712894 -0.025586898 0.0958769 0.011332332 0.015618004 0.108436756 -0.016644334 -0.03818453
0.0087785795 0.06528267 0.01869239 -0.040791392 -0.04722995 -0.0041459785 -0.024570093 0.0006880316
0.059819918 -0.05320019 -0.015446085 0.0057647666 -0.06013701 -0.024303176 0.019782778 -0.0029392883
0.10857263 -0.07672073 -0.0390718 -0.0244172 -0.06602808 -0.023418752 -0.008836377 -0.04691501
-0.066791125 -0.054968014 -0.013221276 -0.034600507 -0.037669625 0.013488214 -0.01890706 -0.05207855
-0.03125259 -0.044414952 -0.047423504 0.0013521423 -0.008393834 0.005403343 0.00149362 -0.055978257
-0.051495444 0.0021615885 -0.015659891 -0.008515622 -0.035320137 -0.027352199 0.006880302 0.0020354008

sequential_2/conv2d_3/BiasAdd;sequential_2/conv2d_1/Conv2D;sequential_2/conv2d_3/Conv2D;conv2d_3/bias f4 [64]
00000000: 2ab5 03bd 9c54 95bc a152 813d 3d2b 3abd
00000010: ebe5 b2bc 2b9d d6bc c9ed bcbb 87e8 0e3d
00000020: 2748 97bd 847b 7dbc b51f 843c 0084 dfbc
00000030: ddac 883c 561a 5abc 3a08 27bc 3316 cabc
00000040: e18b a7bc 7aff 3d3b d062 c63c 6f6b 8ebc
00000050: 4807 af3b 6e92 d93c 3986 b7bc 9d0b 893c
00000060: acff dd3c b30b d4bc 5849 43bd 976d c7bb
00000070: a59b d5bc c1ac f03c 1216 bfbc 8600 dcbc
00000080: 8091 96bd 66db 27bd 05c3 01bd 80c8 47bc
00000090: b306 58bd e27e 7d3b 5170 a4bc 4864 2fbd
000000a0: 4cbe d6bc d6f1 88bc 8e81 1d3c 639a f0bc
000000b0: 6d9c 93b9 9edd b4bc 0e6b 28bd e8ad 91bd
000000c0: 0358 8c3d c82a 123b 3d60 d6bc ebfb 13bd
000000d0: d94b 6d3d a7fe a4bc 0f12 c7bb 168a 90bc
000000e0: ee58 cabc 1eb0 15bd bee3 1c3d 2f8f eebc
000000f0: 104d 0b3d 2652 fbbb bb70 99bd 83ad 8dbd
-0.032155193 -0.018228821 0.06314588 -0.04545139 -0.021838149 -0.02619799 -0.005765651 0.034889724
-0.07386809 -0.015471343 0.0161284 -0.027284622 0.01668399 -0.013311943 -0.010194832 -0.024668789
-0.020452442 0.0028991387 0.02421704 -0.017385213 0.005341444 0.02655908 -0.02240287 0.01672917
0.027099453 -0.025884485 -0.047677368 -0.006086062 -0.026075194 0.02937925 -0.023325954 -0.026855718
-0.07351971 -0.04098072 -0.031680126 -0.012193799 -0.052740764 0.0038680364 -0.020073088 -0.042820245
-0.026213787 -0.016716879 0.009613408 -0.029370492 -0.0002815457 -0.022078332 -0.04111772 -0.07113248
0.068527244 0.0022303332 -0.026168937 -0.03612892 0.057933662 -0.020140959 -0.006075151 -0.01764397
-0.024700608 -0.03654491 0.03830313 -0.02912101 0.03400904 -0.007669705 -0.07492205 -0.0691786

sequential_2/conv2d_2/BiasAdd;sequential_2/conv2d_1/Conv2D;sequential_2/conv2d_2/Conv2D;conv2d_2/bias f4 [64]
00000000: 0066 63bc d7a4 94bc f51c ca3c 5623 373c
00000010: 901f 35bd fe60 253d 5eaf 8dbd 30b4 23bc
00000020: ee88 003d 5d8c 843d 4b65 3a3d cb47 4fbc
00000030: 97b2 bebc 8b06 b3bc b508 533d d46f 16bd
00000040: d5b1 7fbd 7e28 01bd 6275 c5bc a7dd 2fbb
00000050: 81c6 113c ceeb 80bc a600 1fbd d885 83bd
00000060: ab47 0dbd f669 583c ca0c 11bd 9e55 16bd
00000070: 74d7 c9bc ba97 cdbc bd97 9bbc d578 f8bc
00000080: 7386 c2bc 6270 a73c d7c4 3abb 3377 fd3c
00000090: 4ed9 f2bc b2a0 2bbd a30a c5bc dd11 bdbc
000000a0: d738 d53c 31a7 1f3d 9352 953b c9ee 893c
000000b0: 70ae 883d 1828 82bc 111d a6bb 8635 4dbd
000000c0: dc71 10bd 3e93 a6bc 5db3 1c3d 817a 8fbc
000000d0: e63e 4cbd 31a6 a1bc aa29 12bd 2f37 7fbd
000000e0: 6b3c 97bc e609 18bd 016e 4cbd 9b3f f3bc
000000f0: c766 153d 2d8c 32bd c4a0 35bd 3eb2 94bc
-0.013879299 -0.018145008 0.02467201 0.011177858 -0.044219553 0.040375702 -0.06918214 -0.0099916905
0.031380586 0.06472085 0.045506757 -0.012651394 -0.023278518 -0.021853706 0.051521976 -0.03672774
-0.062425453 -0.031532757 -0.024103824 -0.0026834996 0.008897425 -0.01573744 -0.038818978 -0.06422013
-0.034492176 0.013208857 -0.035412587 -0.036702745 -0.024638869 -0.025096763 -0.018993253 -0.030331055
-0.023745751 0.02043933 -0.0028498673 0.030940628 -0.029644635 -0.041901298 -0.024052924 -0.023079807
0.02602808 0.038977806 0.0045569628 0.016837494 0.06673896 -0.015888259 -0.005069383 -0.050099872
-0.035264835 -0.020333882 0.03825699 -0.01751447 -0.049864672 -0.019732567 -0.035684265 -0.062308487
-0.018461427 -0.037118815 -0.049909595 -0.029693415 0.03647497 -0.043590713 -0.04434277 -0.018151399

sequential_2/conv2d_1/BiasAdd;sequential_2/conv2d_1/Conv2D;conv2d_1/bias f4 [64]
00000000: 3a04 ab3d de7c f6bc 95c4 c0bc 071e 05bd
00000010: c51e 94bc 6256 31bc 9f62 68bd 17b1 9dbd
00000020: a8e3 57bd 06dc d33a 2c8c 953d 1ef4 66bd
00000030: 4106 83bd 1690 eabc d0c8 7dbc bea4 6cbd
00000040: d61d 2f3d 5b0d 0a3c 3a05 b1bc 5378 30bd
00000050: 00ee 74bd c792 b5bc e218 9dbc bc33 20bd
00000060: 6656 79bc 47b6 c83c 537d 30bd 79c6 08bd
00000070: 32b9 e9bc 55b3 5e3c 100e f6bc 6406 5dbd
00000080: 6c0b 963d 7323 2c3d 5925 543d ec71 a43a
00000090: 9c41 e8bc 7c14 9e3d dd1b 2a3d 029c 923d
000000a0: 2522 a93d 2c50 70bc 6e93 59bc 6d63 6abd
000000b0: 7188 3e3c fb1e 063d f4cd 933d 0d70 543c
000000c0: 832e 9abc 5d24 05bc 2d21 93bb b534 0abd
000000d0: cc32 8a3d a4ae abbc e488 7abc 6988 e8bc
000000e0: f51f d8bc 0ce8 f1bc d33f 743c e4f5 96bc
000000f0: d69a 72bd 275a e2bc b538 8c3d 639a 993d
0.083504155 -0.030088838 -0.023531238 -0.03249934 -0.018081078 -0.010823818 -0.056734677 -0.07699793
-0.052707344 0.0016163595 0.07302126 -0.056385152 -0.06397677 -0.028633159 -0.015489772 -0.057774298
0.042753063 0.008426036 -0.021608938 -0.0430835 -0.059797287 -0.022164715 -0.019176904 -0.039111838
-0.015218353 0.02450098 -0.04308827 -0.033392403 -0.02853069 0.013592561 -0.030036002 -0.053961173
0.07326397 0.042025995 0.05179343 0.0012546158 -0.028351597 0.07718751 0.04153048 0.071586624
0.08258466 -0.014667552 -0.013279779 -0.057223726 0.01162921 0.03274439 0.07217017 0.012966168
-0.018821007 -0.008126345 -0.004490039 -0.03374167 0.0674797 -0.020957299 -0.015291426 -0.028385358
-0.026382426 -0.029529594 0.014907795 -0.018427797 -0.059229694 -0.027630879 0.068467535 0.0750015

sequential_2/conv2d/BiasAdd;sequential_2/conv2d/Conv2D;conv2d/bias f4 [32]
00000000: 7adc 723b 5d87 5abc 5f41 bbbc 8029 c83a
00000010: 40f5 33bc bdfd acbc e030 adbc b6f5 493d
00000020: 5aed 34bd 7f70 c9bd 49ff b73d 9040 33bc
00000030: 7b41 273d 11ca afbd bcf9 283b 5f20 3b3d
00000040: 49c8 ccbc bcf1 8bbd 211e 65bd c274 f2bb
00000050: e2a9 663d a2d0 aabb 5ae8 a6bd b660 a5bc
00000060: 3c1e 163d 531e 2bbd 66e3 c7bd 9c10 a1bd
00000070: 9c12 54bc 3202 90bc 4fbc b2bc 670c 5e3d
0.0037057684 -0.013337937 -0.02285832 0.0015271157 -0.010983765 -0.021117086 -0.02114147 0.049306594
-0.04417167 -0.0983591 0.08984239 -0.010940686 0.04083393 -0.08583463 0.002578362 0.04568517
-0.024997847 -0.068332165 -0.055936936 -0.0073991725 0.056314357 -0.0052128593 -0.08149786 -0.020187717
0.036649927 -0.041776966 -0.0976017 -0.07864496 -0.01294389 -0.017579172 -0.021818308 0.054211047

sequential_2/conv2d_5/Conv2D i1 [64, 3, 3, 64]
00000000: f1fd d019 dbee ee86 e2ab c5f3 55fe b9a1
00000010: dd26 d7d3 07e8 cfca b70b f8cf ee08 fbdf
00000020: f1e4 1be6 0015 eb11 e320 c8e9 fb15 17c5
00000030: 1bd7 eed5 0de3 0d09 f5fd 0c1d f707 c424
00000040: 12d9 10ef 0b0b ee0c f720 a40b ef17 ff22
00000050: fbeb 06d3 01e1 1c1e d4ef dfd2 f00c 141b
00000060: c904 0bf4 20fd d3ec 02f4 ecfd 28f1 12f2
00000070: ee04 fb0e ebf0 fae7 e8e8 1e13 ef00 1dfc
00000080: e1e0 162a 41ff fde7 eafd d2e8 c0d4 2af0
00000090: d6da 401e edd5 0412 f1d4 13f8 fefc f114
000000a0: e436 f500 36e1 1012 1fec d00d 0eed f620
000000b0: 4c17 e1d3 fb37 ee18 f419 0b09 e7e6 300e
000000c0: d0f5 17f6 c40c e8ba b4d8 ddf7 fff9 d0d5
000000d0: e304 fbe8 ec02 15d8 a5f5 1fd4 c3f4 f301
000000e0: 19dc 0813 121c f8fa 0ada d00e d001 1a02
000000f0: 16e1 e110 1dfc ea16 08f1 e90e 1df7 0af2
-15 -3 -48 25 -37 -18 -18 -122
-30 -85 -59 -13 85 -2 -71 -95
-35 38 -41 -45 7 -24 -49 -54
-73 11 -8 -49 -18 8 -5 -33
-15 -28 27 -26 0 21 -21 17
-29 32 -56 -23 -5 21 23 -59
27 -41 -18 -43 13 -29 13 9
-11 -3 12 29 -9 7 -60 36
18 -39 16 -17 11 11 -18 12
-9 32 -92 11 -17 23 -1 34
-5 -21 6 -45 1 -31 28 30
-44 -17 -33 -46 -16 12 20 27
-55 4 11 -12 32 -3 -45 -20
2 -12 -20 -3 40 -15 18 -14
-18 4 -5 14 -21 -16 -6 -25
-24 -24 30 19 -17 0 29 -4
-31 -32 22 42 65 -1 -3 -25
-22 -3 -46 -24 -64 -44 42 -16
-42 -38 64 30 -19 -43 4 18
-15 -44 19 -8 -2 -4 -15 20
-28 54 -11 0 54 -31 16 18
31 -20 -48 13 14 -19 -10 32
76 23 -31 -45 -5 55 -18 24
-12 25 11 9 -25 -26 48 14
-48 -11 23 -10 -60 12 -24 -70
-76 -40 -35 -9 -1 -7 -48 -43
-29 4 -5 -24 -20 2 21 -40
-91 -11 31 -44 -61 -12 -13 1
25 -36 8 19 18 28 -8 -6
10 -38 -48 14 -48 1 26 2
22 -31 -31 16 29 -4 -22 22
8 -15 -23 14 29 -9 10 -14

sequential_2/conv2d_4/Conv2D i1 [64, 3, 3, 64]
00000000: 0efb f5ee 09c3 1634 1f0e 3bdd fb2a 1ae3
00000010: 23d2 0921 0314 2724 f816 f707 1eec ede1
00000020: 0bf7 ef15 d5b6 1f20 2440 4414 0711 192a
00000030: f8c9 02f1 e53e fa1a 1b0e 2b42 0d2a 3f1b
00000040: 161b fc0d ebf6 f805 2203 03d9 1af6 f700
00000050: ff32 3123 1e2a 1009 ec15 1f1c 20d0 141d
00000060: 0d2f f8f3 16e4 3e2a 1325 2bf5 0018 2407
00000070: f381 0611 f215 2cf6 0b1b 39e5 d701 2ff4
00000080: 1321 e4fd edbf 25d7 fef6 c421 05bf d1fa
00000090: 211d 031c b013 4e42 fe06 d29f ee0f ea0c
000000a0: 16f0 e4e2 2d06 3431 e514 f913 bf06 dbe6
000000b0: b1af f0e3 df2d e505 0af2 11b9 de0d fb10
000000c0: 2027 0c00 06c8 002f eafb 1bf4 fe35 e3e8
000000d0: 20f0 e5dd 34fb eefe f305 2927 1322 f1f1
000000e0: 0006 dff2 1fc0 0a0b 0234 f5e3 f801 130d
000000f0: cedc ffe5 d0d1 0622 f1f6 3502 10e7 fce7
14 -5 -11 -18 9 -61 22 52
31 14 59 -35 -5 42 26 -29
35 -46 9 33 3 20 39 36
-8 22 -9 7 30 -20 -19 -31
11 -9 -17 21 -43 -74 31 32
36 64 68 20 7 17 25 42
-8 -55 2 -15 -27 62 -6 26
27 14 43 66 13 42 63 27
22 27 -4 13 -21 -10 -8 5
34 3 3 -39 26 -10 -9 0
-1 50 49 35 30 42 16 9
-20 21 31 28 32 -48 20 29
13 47 -8 -13 22 -28 62 42
19 37 43 -11 0 24 36 7
-13 -127 6 17 -14 21 44 -10
11 27 57 -27 -41 1 47 -12
19 33 -28 -3 -19 -65 37 -41
-2 -10 -60 33 5 -65 -47 -6
33 29 3 28 -80 19 78 66
-2 6 -46 -97 -18 15 -22 12
22 -16 -28 -30 45 6 52 49
-27 20 -7 19 -65 6 -37 -26
-79 -81 -16 -29 -33 45 -27 5
10 -14 17 -71 -34 13 -5 16
32 39 12 0 6 -56 0 47
-22 -5 27 -12 -2 53 -29 -24
32 -16 -27 -35 52 -5 -18 -2
-13 5 41 39 19 34 -15 -15
0 6 -33 -14 31 -64 10 11
2 52 -11 -29 -8 1 19 13
-50 -36 -1 -27 -48 -47 6 34
-15 -10 53 2 16 -25 -4 -25

sequential_2/conv2d_3/Conv2D i1 [64, 3, 3, 64]
00000000: c7dd bcf9 b628 15fd 0fe4 18f5 d200 ac14
00000010: c6f2 ebb7 f626 1fe9 1bd5 bddf e313 26c9
00000020: 0711 df30 34e5 f2e3 a7bf a5de 040b 472d
00000030: cc1e ba3a b631 ba10 d0fc 7f26 01ed 3e13
00000040: 052c e5ef cc3a ebf8 c225 b4da d3ec d1ea
00000050: 1c21 c4dc c6e6 3217 1b07 c6e7 07d6 1234
00000060: fad3 4619 29e1 17f7 e4fb fa28 afe8 1ed5
00000070: 23f3 da3c ddd5 c702 2902 15db d52d c0e6
00000080: fdf6 0b0d c41a f6de 38ea e536 0808 11e3
00000090: d010 26b0 efcc 19bc e801 08c6 bb39 c8bc
000000a0: c4fb d917 e1dc bee6 3633 f6e8 fbd8 0e3e
000000b0: b33d bdd9 dd32 d804 f5e8 0bc4 c8f9 02de
000000c0: c6f6 12d0 e7b7 07e9 bd13 94e3 1f17 b904
000000d0: 17d6 cc25 e8d4 2ebb 42fc 0eba 3510 f1bf
000000e0: 2b03 10a6 c5c4 3435 f224 ecb0 fb20 b807
000000f0: e801 f801 272d 2809 e80c 5ace c9d6 11f5
-57 -35 -68 -7 -74 40 21 -3
15 -28 24 -11 -46 0 -84 20
-58 -14 -21 -73 -10 38 31 -23
27 -43 -67 -33 -29 19 38 -55
7 17 -33 48 52 -27 -14 -29
-89 -65 -91 -34 4 11 71 45
-52 30 -70 58 -74 49 -70 16
-48 -4 127 38 1 -19 62 19
5 44 -27 -17 -52 58 -21 -8
-62 37 -76 -38 -45 -20 -47 -22
28 33 -60 -36 -58 -26 50 23
27 7 -58 -25 7 -42 18 52
-6 -45 70 25 41 -31 23 -9
-28 -5 -6 40 -81 -24 30 -43
35 -13 -38 60 -35 -43 -57 2
41 2 21 -37 -43 45 -64 -26
-3 -10 11 13 -60 26 -10 -34
56 -22 -27 54 8 8 17 -29
-48 16 38 -80 -17 -52 25 -68
-24 1 8 -58 -69 57 -56 -68
-60 -5 -39 23 -31 -36 -66 -26
54 51 -10 -24 -5 -40 14 62
-77 61 -67 -39 -35 50 -40 4
-11 -24 11 -60 -56 -7 2 -34
-58 -10 18 -48 -25 -73 7 -23
-67 19 -108 -29 31 23 -71 4
23 -42 -52 37 -24 -44 46 -69
66 -4 14 -70 53 16 -15 -65
43 3 16 -90 -59 -60 52 53
-14 36 -20 -80 -5 32 -72 7
-24 1 -8 1 39 45 40 9
-24 12 90 -50 -55 -42 17 -11

sequential_2/conv2d_2/Conv2D i1 [64, 3, 3, 64]
00000000: 1e0f 24f9 d0fc 1f19 eeff 0dca f6a5 06d6
00000010: e806 0702 1119 e704 2002 15e7 a6fb e803
00000020: 1ef8 2116 c706 cdf7 14f9 f52f d8fe 3e1c
00000030: 0dba 2c12 f41d 0704 08dc dc0a fbe5 352d
00000040: 2de7 0cfd cb1e 401d 2bf1 14b2 d1c1 2bf8
00000050: dc2f 2606 1ae8 1a23 320a 0e2c c1f7 ee0e
00000060: 0b12 f6fe ee41 c0fd 4b16 2127 09e6 653b
00000070: fec5 07e2 1a26 2bf2 e728 0cfb 1cbd 0c2d
00000080: 0ee9 0313 e5ea 2929 e8d2 0ae9 14f1 07f4
00000090: 0404 01cd f10c ec20 2615 15f8 81bf fe33
000000a0: fe3f 23fb cb2b bee9 361c f1ea ef0a e219
000000b0: 09dc 1917 f816 201a f520 ca0b 0cf1 2aee
000000c0: e917 fd00 b7dc 21f0 1cfb 26dd fda0 321c
000000d0: f31a f317 faf6 ead8 32ef e6e9 d009 deef
000000e0: 02f8 1b0b 0203 9b0b f90a 0ce7 fbe6 0d3c
000000f0: 13e5 370f 1401 3af3 eae0 d52a 15d7 3123
30 15 36 -7 -48 -4 31 25
-18 -1 13 -54 -10 -91 6 -42
-24 6 7 2 17 25 -25 4
32 2 21 -25 -90 -5 -24 3
30 -8 33 22 -57 6 -51 -9
20 -7 -11 47 -40 -2 62 28
13 -70 44 18 -12 29 7 4
8 -36 -36 10 -5 -27 53 45
45 -25 12 -3 -53 30 64 29
43 -15 20 -78 -47 -63 43 -8
-36 47 38 6 26 -24 26 35
50 10 14 44 -63 -9 -18 14
11 18 -10 -2 -18 65 -64 -3
75 22 33 39 9 -26 101 59
-2 -59 7 -30 26 38 43 -14
-25 40 12 -5 28 -67 12 45
14 -23 3 19 -27 -22 41 41
-24 -46 10 -23 20 -15 7 -12
4 4 1 -51 -15 12 -20 32
38 21 21 -8 -127 -65 -2 51
-2 63 35 -5 -53 43 -66 -23
54 28 -15 -22 -17 10 -30 25
9 -36 25 23 -8 22 32 26
-11 32 -54 11 12 -15 42 -18
-23 23 -3 0 -73 -36 33 -16
28 -5 38 -35 -3 -96 50 28
-13 26 -13 23 -6 -10 -22 -40
50 -17 -26 -23 -48 9 -34 -17
2 -8 27 11 2 3 -101 11
-7 10 12 -25 -5 -26 13 60
19 -27 55 15 20 1 58 -13
-22 -32 -43 42 21 -41 49 35

sequential_2/conv2d_1/Conv2D i1 [64, 3, 3, 32]
00000000: ed0e 002c 0c24 ea0b e5a0 1b15 06d3 b20f
00000010: 03ba 1203 2aad 82f7 0c07 d5dd 0cfb d914
00000020: 1f1e e313 10e9 f30e 06ee 1320 08fe da39
00000030: fcd3 04fc 13db a7e8 f10a 20c5 09ec df04
00000040: 21ff ee1e d7cf e307 f60e 2403 df34 cffb
00000050: dee8 07ff e4f7 c022 f1c1 0bd1 1ccb e802
00000060: 0720 d51c efd9 e224 ccb2 3a26 3728 cf03
00000070: ee0b 05ca 1fea c211 f3db dc02 15ee c011
00000080: 1113 1fff 260d f70c 1881 2d23 3419 1f15
00000090: d1cd 18eb 4201 b6db 32f6 fce1 f10d d8f5
000000a0: d205 21f4 16f1 d3cd 15b4 e8ef 0dd5 0ee2
000000b0: f4ae 0cac 05f2 c3d4 d0c9 26c5 3512 fc1c
000000c0: e120 1c2e 0328 2c09 dcbe 2008 130e f30d
000000d0: ddcc c6d4 31bc f110 21f0 decd fbf5 9cfd
000000e0: bde7 cdda e2fe f3db e7a6 2dea 24dd 1a27
000000f0: cfce d40a 3608 b727 eb9a cf1f febd 0524
-19 14 0 44 12 36 -22 11
-27 -96 27 21 6 -45 -78 15
3 -70 18 3 42 -83 -126 -9
12 7 -43 -35 12 -5 -39 20
31 30 -29 19 16 -23 -13 14
6 -18 19 32 8 -2 -38 57
-4 -45 4 -4 19 -37 -89 -24
-15 10 32 -59 9 -20 -33 4
33 -1 -18 30 -41 -49 -29 7
-10 14 36 3 -33 52 -49 -5
-34 -24 7 -1 -28 -9 -64 34
-15 -63 11 -47 28 -53 -24 2
7 32 -43 28 -17 -39 -30 36
-52 -78 58 38 55 40 -49 3
-18 11 5 -54 31 -22 -62 17
-13 -37 -36 2 21 -18 -64 17
17 19 31 -1 38 13 -9 12
24 -127 45 35 52 25 31 21
-47 -51 24 -21 66 1 -74 -37
50 -10 -4 -31 -15 13 -40 -11
-46 5 33 -12 22 -15 -45 -51
21 -76 -24 -17 13 -43 14 -30
-12 -82 12 -84 5 -14 -61 -44
-48 -55 38 -59 53 18 -4 28
-31 32 28 46 3 40 44 9
-36 -66 32 8 19 14 -13 13
-35 -52 -58 -44 49 -68 -15 16
33 -16 -34 -51 -5 -11 -100 -3
-67 -25 -51 -38 -30 -2 -13 -37
-25 -90 45 -22 36 -35 26 39
-49 -50 -44 10 54 8 -73 39
-21 -102 -49 31 -2 -67 5 36

dense_1/bias f4 [3]
00000000: f648 cebc 62ed dc3c 3e42 b83b
-0.025181275 0.026968662 0.005623131

dense/bias f4 [64]
00000000: 102f 29bc 1c5e 18bc 9d33 ce3c 1ebc 81bc
00000010: e6b0 553d 7a73 13bc f617 693d 5bc7 363d
00000020: 2066 593c 4fff 0ebc ed7a 1ebb 1b31 1a3d
00000030: d2a2 0a3d 9779 c33c 7dc6 41bb 295a 123d
00000040: 5f78 b83c 01ff 2abc c934 2c3b f3f9 cabc
00000050: 169f b3bc b361 04bc cb62 0e3d b2aa 7dbc
00000060: 739b 03bc 3b27 bb3c 45bd e83c baa0 293c
00000070: 2764 ae3b b5fa 78bc f923 bc3c 57db be3c
00000080: 23de ac3c ce7b 033d 8ea6 2e3d 30f6 5039
00000090: e741 973c 6220 5b3c 62fd bb3b 94de 15bc
000000a0: 1b6b b2bc f0c4 cebc 51cc 8abc 8b6a 183d
000000b0: 51ef b4bc 5bfe 753c 2958 02bd 80e7 acbb
000000c0: 5a16 4bbc a738 d1bc 317c 833c 6656 ed3c
000000d0: ceb4 ccbc adba 9d3b f8d0 403d 7dd9 db3c
000000e0: 0458 423d 3462 bebb f888 2e3c 8634 823b
000000f0: c8e6 7abc f118 1ebd 478f c7bc 4ace 69bc
-0.010326162 -0.009299781 0.025171096 -0.015836772 0.052170657 -0.0089997 0.056907617 0.044623714
0.013268977 -0.0087278625 -0.0024182156 0.037644487 0.033846684 0.02386169 -0.002956777 0.035730515
0.022518335 -0.010436774 0.002627658 -0.024777388 -0.021926444 -0.008079934 0.034762185 -0.015482591
-0.008032667 0.022845855 0.028410563 0.010353262 0.0053219977 -0.015196492 0.022966372 0.023297949
0.021102017 0.03210049 0.042639308 0.00019928138 0.018464042 0.01337442 0.0057369927 -0.009147305
-0.021779587 -0.025240391 -0.016943129 0.037210982 -0.022086771 0.015014256 -0.031822357 -0.0052766204
-0.012395466 -0.02553971 0.01605043 0.028971862 -0.024988558 0.0048135133 0.047074288 0.026837105
0.04744722 -0.0058100466 0.010652773 0.0039735464 -0.015313812 -0.038598005 -0.024360312 -0.014270375

sequential_2/dense/MatMul i1 [64, 256] scale=0.0032149067 zero_point=0
00000000: 17f2 ec01 0ee7 e915 0df4 e6f8 ee12 22d5
00000010: d90d ebe0 fc1f e6d1 1a2b e70b 16eb fe14
00000020: f41c ffd9 1af0 db06 effa d9f3 121a da1e
00000030: ee11 010b 1c0c 2dfc fae8 f31b d1ed 0708
00000040: 07e4 d4df ebe6 c9da 111e 0719 db0f ede7
00000050: f416 110b fc0a 10d3 1be7 2908 f72c 0aec
00000060: 03f3 d3f9 1800 16fd 05fa 0102 e7db ed0c
00000070: fae0 f9d0 f6f2 dfeb ff0e fd0c b9dd 0cdc
00000080: 15ff d202 191a d6d0 16e5 25d9 02d8 0ddc
00000090: 2921 cdd2 1500 d720 1423 f01c dd12 0507
000000a0: 020a 1f11 d2fa 17e8 fee2 f205 fadf f2d8
000000b0: 1b1f 1cf8 e5fa cdd9 f2fc e705 e606 d8f0
000000c0: e7ec 1102 da37 06df 18e3 f920 f5d9 f509
000000d0: 22ea f4fd fedd 0015 f609 031c e702 11e1
000000e0: 0eef ec27 f61f f8f9 fe1f c9b6 e308 ea12
000000f0: dc2a fce2 f220 0ae7 f0ee 0f01 d906 e8cf
0.073942855 -0.045008693 -0.06429813 0.0032149067 0.045008693 -0.08037267 -0.073942855 0.06751304
0.041793786 -0.03857888 -0.08358757 -0.025719253 -0.05786832 0.05786832 0.10930683 -0.138241
-0.12538137 0.041793786 -0.06751304 -0.10287701 -0.012859627 0.09966211 -0.08358757 -0.15110062
0.08358757 0.138241 -0.08037267 0.035363972 0.070727944 -0.06751304 -0.0064298133 0.06429813
-0.03857888 0.090017386 -0.0032149067 -0.12538137 0.08358757 -0.051438507 -0.118951544 0.01928944
-0.054653414 -0.01928944 -0.12538137 -0.041793786 0.05786832 0.08358757 -0.122166455 0.0964472
-0.05786832 0.054653414 0.0032149067 0.035363972 0.090017386 0.03857888 0.1446708 -0.012859627
-0.01928944 -0.07715776 -0.041793786 0.08680248 -0.15110062 -0.061083227 0.022504346 0.025719253
0.022504346 -0.090017386 -0.14145589 -0.10609192 -0.06751304 -0.08358757 -0.17681986 -0.122166455
0.054653414 0.0964472 0.022504346 0.08037267 -0.118951544 0.0482236 -0.061083227 -0.08037267
-0.03857888 0.070727944 0.054653414 0.035363972 -0.012859627 0.032149065 0.051438507 -0.1446708
0.08680248 -0.08037267 0.13181117 0.025719253 -0.02893416 0.14145589 0.032149065 -0.06429813
0.00964472 -0.041793786 -0.1446708 -0.022504346 0.07715776 0.0 0.070727944 -0.00964472
0.016074533 -0.01928944 0.0032149067 0.0064298133 -0.08037267 -0.118951544 -0.061083227 0.03857888
-0.01928944 -0.10287701 -0.022504346 -0.15431552 -0.032149065 -0.045008693 -0.10609192 -0.06751304
-0.0032149067 0.045008693 -0.00964472 0.03857888 -0.22825837 -0.11252173 0.03857888 -0.11573664
0.06751304 -0.0032149067 -0.14788571 0.0064298133 0.08037267 0.08358757 -0.13502608 -0.15431552
0.070727944 -0.08680248 0.118951544 -0.12538137 0.0064298133 -0.12859626 0.041793786 -0.11573664
0.13181117 0.10609192 -0.16396023 -0.14788571 0.06751304 0.0 -0.13181117 0.10287701
0.06429813 0.11252173 -0.051438507 0.090017386 -0.11252173 0.05786832 0.016074533 0.022504346
0.0064298133 0.032149065 0.09966211 0.054653414 -0.14788571 -0.01928944 0.073942855 -0.07715776
-0.0064298133 -0.0964472 -0.045008693 0.016074533 -0.01928944 -0.10609192 -0.045008693 -0.12859626
0.08680248 0.09966211 0.090017386 -0.025719253 -0.08680248 -0.01928944 -0.16396023 -0.12538137
-0.045008693 -0.012859627 -0.08037267 0.016074533 -0.08358757 0.01928944 -0.12859626 -0.051438507
-0.08037267 -0.06429813 0.054653414 0.0064298133 -0.122166455 0.17681986 0.01928944 -0.10609192
0.07715776 -0.0932323 -0.022504346 0.10287701 -0.035363972 -0.12538137 -0.035363972 0.02893416
0.10930683 -0.070727944 -0.03857888 -0.00964472 -0.0064298133 -0.11252173 0.0 0.06751304
-0.032149065 0.02893416 0.00964472 0.090017386 -0.08037267 0.0064298133 0.054653414 -0.09966211
0.045008693 -0.054653414 -0.06429813 0.12538137 -0.032149065 0.09966211 -0.025719253 -0.022504346
-0.0064298133 0.09966211 -0.17681986 -0.23790309 -0.0932323 0.025719253 -0.070727944 0.05786832
-0.11573664 0.13502608 -0.012859627 -0.0964472 -0.045008693 0.10287701 0.032149065 -0.08037267
-0.051438507 -0.05786832 0.0482236 0.0032149067 -0.12538137 0.01928944 -0.07715776 -0.15753043

sequential_2/dense_1/MatMul f4 [3, 64]
00000000: 873b f53d 83a9 d9bc 9937 8c3d 88e6 b63d
00000010: bbad 583e 69ad b53d 0603 443e 16e3 b6bd
00000020: 2b05 3b3e a8bf 573e a27b 243c 58c9 b5bd
00000030: ce81 3f3e beea 14bd cae4 72be a415 a7bd
00000040: 5b95 483d 0379 9f3e b79c 27bd 12b8 353e
00000050: 5c10 99be 2082 56be 9bc3 2cbd 34bb 6b3d
00000060: e3d3 fa3d 28fc eabb a599 473e 5dec 82be
00000070: 0fad 28be 8e50 893e 30a3 8fbe 5f10 813e
00000080: 99a9 7e3c f4ed 59be ab6f c23d c067 e33c
00000090: bd63 0dbc 9c3f 8a3e db16 c5bd 9214 773e
000000a0: 9297 bdbd b426 87be 0910 8f3e 66f2 753d
000000b0: 5b67 9d3e 19ef 633e f6c3 5d3e e227 6ebe
000000c0: e0a2 0dbe b50d 1f3e d98d 62be 0b0e 1a3d
000000d0: dbca 733e c9bb 783e 2021 c8bd fb85 183e
000000e0: 05fc da3d 5e44 5a3e 7e8c dfbd c117 903e
000000f0: bdb4 6dbe 2a58 6b3e f333 683c c611 b8bd
00000100: 23f3 003e d18c 02be 38ff 843e 98db 253e
00000110: e7df b4bd da11 d3bd dd36 32be 9354 643e
00000120: 009a 873c 205c 90be a26a 883e df15 1f3c
00000130: 226f 80be a2e8 823e d7d3 a53d 6868 863e
00000140: 6b44 823e ad23 ab3d 8264 3abe 4115 af3d
00000150: 780c 443e 774a 91bd 7c07 113e 4baf 52be
00000160: b654 d03d 5312 cb3d 2680 753e 2c72 8e3e
00000170: 153d c73d bed7 5fbc bebb c5bd ddbd 8a3e
00000180: 6b5f 433e 656b 263d 5428 57be 8278 06be
00000190: c08e 16bd c5a5 333e 1f20 1ebc 7a9a 0f3e
000001a0: 4242 8ebd da73 8d3c a48e 0dbe f527 443e
000001b0: e051 5bbe dab5 843e baca 62be 7335 d4bd
000001c0: 379e 65be 6525 383d 242e 0cbd 07af 4b3e
000001d0: 9c71 b23c 867a 533d 34ed 5b3e 6e74 4f3e
000001e0: d216 18be c956 6b3c 45d1 fdbc 1217 ea3c
000001f0: dab6 bcbd b18c 423e 8034 81be 52cb 843e
00000200: d856 1ebe 001d 9a3d e5a6 8a3e 35d2 e13d
00000210: 5e29 3a3e dc60 783d 109f c03d f5c2 693e
00000220: c69b c6be 680c 87be bfe6 a7bd a675 71be
00000230: 943f 67bc a540 a9bd 9144 d3bd a188 9f3e
00000240: 709c 253e e8c7 eaba f299 993e cc35 86bd
00000250: 078a 183b e1b8 d8bc d331 a23e f54f b1be
00000260: bdfa 7f3e dc60 3a3b 11ee 22be 4417 0f3d
00000270: 92ae 5f3e 22d5 44be a1f2 81be 8535 943d
00000280: d89d 153e 76c8 0f3b 7f95 43bc 7f01 4cbe
00000290: ba7e 9dbe b191 45bd 381d 35bd 2d84 873d
000002a0: aa5e 7f3e 277d c73d 692d 603e 33ab 57bd
000002b0: cc12 473e e2c4 963e 021e d2bd 9342 f6bc
000002c0: 2b67 96bd 588f 793e 598f 233d 9448 093e
000002d0: 3386 2b3b 0fae 9ebe ebdf 893e bbca a3be
000002e0: c362 0a3e 6729 03be de04 943d e6c2 77be
000002f0: 3807 d13c bcac 0e3e cf54 b6bd d881 b13c
0.119742446 -0.026570087 0.06846542 0.08930689 0.21160023 0.08870966 0.19141778 -0.08930032
0.1826369 0.21069205 0.010039242 -0.08876294 0.1870186 -0.03635668 -0.23720089 -0.081584245
0.04897056 0.31147012 -0.04092094 0.17745999 -0.29895294 -0.20948076 -0.04217873 0.057551578
0.122474454 -0.0071711726 0.19492204 -0.25570956 -0.16472267 0.2681927 -0.2805419 0.25207803
0.015543365 -0.21282178 0.09493955 0.027759433 -0.0086297365 0.27001655 -0.096235 0.2412894
-0.09257425 -0.26396716 0.2794192 0.060045622 0.30742916 0.22259177 0.21656784 -0.23257402
-0.13831663 0.15532573 -0.22124423 0.03761105 0.23807852 0.24290384 -0.09771943 0.1489486
0.106926 0.21315143 -0.10915469 0.28143123 -0.23213477 0.2298285 0.014172542 -0.08987765
0.1259275 -0.1274903 0.25975966 0.1619705 -0.088317685 -0.10306139 -0.17403741 0.22297888
0.016552925 -0.28195286 0.26643854 0.009709804 -0.25084788 0.2556811 0.08097046 0.2625153
0.25442824 0.08356414 -0.18202403 0.08548976 0.19145381 -0.07094281 0.14163011 -0.20574681
0.10172407 0.099156044 0.23974666 0.2782148 0.09728447 -0.013662277 -0.096549496 0.2709798
0.19079368 0.040629763 -0.21011478 -0.13131908 -0.03675723 0.17543705 -0.009651213 0.14023772
-0.069462314 0.017267156 -0.13823944 0.19155867 -0.21417952 0.25919992 -0.22147647 -0.10361757
-0.22423635 0.044957537 -0.03422369 0.19890986 0.021782689 0.05163052 0.21477205 0.20259258
-0.14852455 0.014363953 -0.030983577 0.028575454 -0.09214564 0.18998982 -0.25235367 0.2593637
-0.15462816 0.075250626 0.27080455 0.11026422 0.18179843 0.060639247 0.09405339 0.22828276
-0.3879072 -0.26376653 -0.08198308 -0.23580036 -0.014114279 -0.08264283 -0.103158124 0.31158927
0.16172957 -0.001791236 0.30000263 -0.0655323 0.002327563 -0.026455345 0.31678638 -0.34631315
0.24997993 0.002843908 -0.15911128 0.034934297 0.21843937 -0.19221929 -0.25380424 0.072367705
0.14610994 0.0021939552 -0.011937498 -0.19922446 -0.30760747 -0.048234645 -0.04421732 0.066170074
0.24938455 0.09740668 0.21892323 -0.052653503 0.19440764 0.29447085 -0.1025963 -0.030061042
-0.073438965 0.24371088 0.03993163 0.13406593 0.0026172518 -0.3099217 0.26928648 -0.3199061
0.13514237 -0.12808762 0.07227491 -0.24195442 0.025516137 0.1393308 -0.08902895 0.02166836
